Assignment7/example/myNet.pt (torch, 1743 bytes, 3 tensors)

hidden.weight f4 [10, 1]
00000000: 6ee3 403f 5223 793f e788 49bf e8c3 e0be
00000010: d2c7 223f 738c 1dbf 56a2 50bf e277 633f
00000020: 30b3 d7bd 90d6 8abd
0.7534703 0.9731952 -0.7872452 -0.43899465 0.6358615 -0.61542434 -0.81497705 0.888548
-0.10532224 -0.06779206

hidden.bias f4 [10]
00000000: 2970 5c3e cc89 77be 2525 d4be ce59 03bf
00000010: 6335 233f ad7d f2be 61fb 39bd 3db0 02bf
00000020: d4d6 6cbf debf 45bf
0.2152716 -0.24173659 -0.4143459 -0.51308906 0.63753337 -0.47361508 -0.04540575 -0.5105017
-0.925153 -0.7724589

output.weight f4 [1, 10]
00000000: c096 023f 2d48 253f 683d 383f 3e6a 58be
00000010: a399 a2be 57da 273f 7f5c 323f 7095 433f
00000020: aa5f 663e 62fa 49be
0.51011276 0.64563257 0.719687 -0.21134278 -0.3175784 0.65567535 0.6967239 0.763999
0.2249743 -0.1972442
