Assignment7/a7/myNet.pt (torch, 19999 bytes, 5 tensors)

hidden1.weight f4 [64, 2]
000000 f6 52 94 be 2f 4d bf bd fd ab d6 3e 74 a3 48 3d
       -0.28969544 -0.093408935 0.41928092 0.048984006
000010 95 6d 20 3e 63 63 5c be 67 42 c0 be 09 27 ce 3d
       0.15666802 -0.21522288 -0.3755066 0.10066039
000020 0e 62 53 be 12 74 88 be c7 e9 66 be 2f e3 33 3f
       -0.20642874 -0.26651055 -0.22550116 0.7026853
000030 5a cc 20 3e b5 3b 01 bf a6 b8 f0 3d 7a 7f 05 3d
       0.15702954 -0.5048173 0.11753969 0.032592274
000040 d5 8b c0 be 0c 8e f0 3e ff ff 84 3e 78 ed 9f 3d
       -0.37606683 0.46983373 0.2597656 0.078089654
000050 c4 3d 90 3e be 98 a7 3d fd e0 32 be 4a 18 90 be
       0.28172123 0.0818343 -0.17468639 -0.2814353
000060 a9 1a f9 3d 54 f0 9c 3e cc 66 29 be dc b6 08 bf
       0.12163288 0.30652106 -0.1654312 -0.5340402
000070 de cf 0d bf 17 9b 55 3e 4e 23 a6 3d c4 68 06 3f
       -0.55395305 0.20859943 0.081122026 0.5250361
000080 2b 5b 19 3f 76 57 42 3e f9 78 3a 3f d2 ee 9d 3e
       0.59904736 0.18978676 0.7284084 0.30846268
000090 ee 67 1e bf d4 4f 63 be 01 1d 82 bd d0 65 16 bf
       -0.61877334 -0.22198421 -0.06353188 -0.58749104
0000a0 b1 c1 aa 3e c9 9a 88 3e 2f af 50 be c2 0d 05 bf
       0.333509 0.26680592 -0.20379327 -0.5197412
0000b0 aa 9e bc 3e 1d 1a 1a 3f a9 ef c7 3d 4a 68 0f 3d
       0.368398 0.60196096 0.097625084 0.035011567
0000c0 05 df d8 3e a5 94 28 3e f4 47 fa 3d 67 8e b7 3d
       0.4235765 0.16462953 0.12220755 0.08962708
0000d0 fd c0 22 be b6 8d 4a be fa 3f be 3e 5d b9 7a bd
       -0.15893932 -0.19780621 0.37158185 -0.061211932
0000e0 94 b2 01 3f 79 cc 21 bd dc 8b fc 3e a0 84 d1 3e
       0.50663114 -0.03950164 0.49325454 0.40921497
0000f0 be 9d 28 bf f6 74 b0 3d d7 1d 11 3e 81 42 34 3d
       -0.65865695 0.086160585 0.14171539 0.044008736
000100 70 f9 13 3f 0a 57 b8 be 2e f0 4a bc 92 ce 70 be
       0.57802486 -0.36003906 -0.012386365 -0.235163
000110 c9 82 69 3e ed c8 96 3d e9 34 97 3e 3c cd 54 be
       0.22803797 0.07362542 0.29532555 -0.20781416
000120 96 b1 f5 3e 3a 3c a6 be 78 1e 01 3f d3 8d c3 3e
       0.4798705 -0.32467824 0.50437117 0.3819414
000130 c4 a4 f2 3e 27 bb ac 3d 69 12 be 3e 02 ba 08 bf
       0.4739133 0.08434134 0.3712342 -0.53408825
000140 f0 f0 12 bf d5 b1 0d 3f 4a 23 ba be ad 00 15 3f
       -0.5739889 0.55349475 -0.36355048 0.58204156
000150 83 05 d3 3e 88 58 b2 3e b7 2e 0d bc 7b 22 c9 3e
       0.41215143 0.3483317 -0.008617095 0.3928412
000160 98 41 1e be 84 08 9d 3e 8b a6 b8 3e c6 75 60 3e
       -0.1545471 0.3067056 0.36064562 0.21919927
000170 d8 19 fe 3e c0 c7 25 bf ea e4 11 3f eb d5 e0 be
       0.49629092 -0.6475792 0.5698992 -0.43913206
000180 d7 c3 bc be 81 33 85 be 71 12 1b bf 8e 00 76 be
       -0.36868164 -0.26015857 -0.60575014 -0.24023649
000190 e9 9b 6f 3c f0 01 ba be 12 da 5e ba 77 71 01 3f
       0.014624574 -0.36329603 -0.0008501123 0.5056376
0001a0 b3 d0 5b 3e 9f 92 9d 3d 6a 28 31 ba 1b 20 fd be
       0.21466331 0.076939814 -0.00067580363 -0.49438557
0001b0 9d bb cd 3e f4 69 98 be 5f ce 01 bf 97 97 39 3e
       0.401822 -0.29768336 -0.5070552 0.18124233
0001c0 3f 22 8b be e4 4a 8d bd 58 77 80 bc bb c2 0b bf
       -0.27174565 -0.0689905 -0.015681908 -0.5459401
0001d0 15 63 06 3f 57 74 eb be 4f 01 d2 be da a9 9d be
       0.5249494 -0.45987198 -0.41016623 -0.3079365
0001e0 a2 a2 28 3f 84 06 00 3f 00 6a 10 3f b1 74 c2 3d
       0.6587316 0.5000994 0.56411743 0.09494913
0001f0 8e 71 ff 3e 16 48 07 bf 9d 72 8d 3e d3 c0 04 bf
       0.49891323 -0.5284437 0.27626505 -0.51856726

hidden1.bias f4 [64]
000000 df a1 ac bf 84 c6 8e bb 1d e3 06 3f 24 e0 ef be
       -1.3486899 -0.004357161 0.526903 -0.46850693
000010 2a 6e 8f 3e e9 af 43 bf 19 f2 98 be d0 9d 01 3f
       0.28013736 -0.7644029 -0.29872206 0.5063143
000020 4d 63 fb 3d 29 78 65 be ed 11 9e bf dd 93 5f bf
       0.122747995 -0.22409119 -1.234922 -0.87334996
000030 97 c7 98 3d 91 68 b1 be bd 1a c3 be dc f5 59 3f
       0.07459944 -0.3465009 -0.38106337 0.85140777
000040 8e f3 61 bf 9a 2c 13 bf 0f a2 64 3e 68 dc 48 3f
       -0.8826226 -0.5748993 0.22327445 0.78461313
000050 11 92 18 bf 8b bb c5 be 2d 2d ec bd df 48 e2 be
       -0.5959788 -0.38619646 -0.11532054 -0.4419622
000060 88 f7 06 3f f4 05 9a bc 17 ec e7 bd d3 d8 79 be
       0.5272145 -0.018801667 -0.113243274 -0.24399118
000070 a4 da 59 3f e3 e9 41 bf 8e 9e 48 bf 37 6a 86 3f
       0.85099244 -0.7574751 -0.78366935 1.0501164
000080 5a 2d 26 3f 8c e4 b9 be 51 16 73 3f f7 3b ef ba
       0.6491295 -0.3630718 0.9495593 -0.0018252124
000090 b5 2c 18 3f 9d 9f 97 3e c1 ef 95 be 02 9e fb 3d
       0.5944322 0.29613963 -0.2928448 0.12285997
0000a0 1c 3d 20 3f 4a 84 a7 3e fb 7f 30 3f 1a 9b a6 3e
       0.62593246 0.32718116 0.6894528 0.32540208
0000b0 56 d5 0b 3f 42 73 e9 be 0f c7 c4 be 19 9c a4 3c
       0.546224 -0.45595747 -0.3843312 0.020093964
0000c0 fc 08 4a 3f 82 fe 13 bf 9a 53 f1 be 78 f5 90 3d
       0.7891996 -0.57810223 -0.47134095 0.070780694
0000d0 b7 b1 74 3f 11 fa c4 be 8e f7 43 3e 8a 89 c3 3d
       0.9558367 -0.38472036 0.19137403 0.09547718
0000e0 64 a7 bf be d5 c1 28 3f 99 d0 4c be ab 23 fe b8
       -0.37432396 0.65920764 -0.20001449 -0.000121183075
0000f0 9c 0d 05 bf 55 63 d9 be cf ef d7 be b1 02 23 bf
       -0.5197389 -0.42458597 -0.42175147 -0.6367598

hidden2.weight f4 [64, 64]
000000 cd 11 da bd 60 34 b9 3d 95 29 d9 bb d0 48 57 3d
       -0.106479265 0.09043193 -0.0066272714 0.052559674
000010 3b a6 95 3d a9 82 15 be 81 77 51 bd f9 d9 9c 3d
       0.073070966 -0.14600624 -0.05113936 0.076587625
000020 77 85 e7 3d 61 fb be 3b 8c ea ec 3b 8e 19 04 bd
       0.11304753 0.0058283065 0.0072301086 -0.032250933
000030 99 69 88 3b 89 88 67 bd d8 2d c1 bd 30 2f 9d bd
       0.004162979 -0.056526694 -0.09432572 -0.07675016
000040 5c 97 c0 bc f0 9e a3 bc 98 2a 8f bc b3 c2 bc 3c
       -0.023509674 -0.019973248 -0.017476365 0.023042059
000050 c3 d9 cb 3d 17 b3 4e bd 7b 51 4e bd 8e f3 d1 bc
       0.09953644 -0.050463762 -0.050370675 -0.025628831
000060 7e bc ee 3d 02 cc 9f bd c5 97 1a bd 39 0f 24 bc
       0.11657046 -0.07802583 -0.037742395 -0.010013395
000070 42 c6 03 be 98 a4 68 bd 8a c7 b8 3b c2 ec ef 3d
       -0.12868598 -0.056797594 0.0056390213 0.1171508
000080 be 64 3f 3d f0 91 44 3c 3b 90 02 3d 68 a3 37 3d
       0.046726935 0.011997685 0.03187583 0.04483357
000090 cb 53 87 3d 88 73 5e 3d dd 39 bf bd 77 9d 03 be
       0.06607779 0.054309398 -0.093372084 -0.12853037
0000a0 de 36 2a bd d5 f7 d4 bd 5b 35 8f 3c ed 89 b1 bb
       -0.04155623 -0.10398833 0.017481497 -0.0054180534
0000b0 b8 53 89 3d 73 3b 57 bc 34 ba 06 3d ee 37 bf bd
       0.06705421 -0.013136732 0.03289242 -0.093368396
0000c0 2c 11 04 3e ce 1f d3 3d 8f 17 de 3d 26 8b 0a 3d
       0.12897176 0.10308801 0.10844337 0.03382411
0000d0 e7 69 09 be 46 aa a5 3d 6c da d5 3d c1 8d 20 3c
       -0.13419305 0.08089118 0.10442051 0.009799422
0000e0 56 24 8c bd 53 0d 1d 3d 00 6e 8a 3d cb 02 c9 3d
       -0.06842868 0.038342785 0.06759262 0.09814986
0000f0 b3 05 eb bc d4 ec 13 3c b5 4e cf 3c df f9 78 3d
       -0.028689241 0.009028632 0.025306085 0.06078517
000100 29 a4 97 be ef 20 35 3c e4 ec 5a bc f6 c9 fa 3c
       -0.29617432 0.011055215 -0.013362143 0.03061388
000110 5c 53 1e bd 4c a2 ca bd cd cc 36 3d 73 f9 c1 3c
       -0.038653716 -0.09894237 0.044628907 0.023678517
000120 93 ee 24 3c 52 2f 12 3d 5f 21 3d 3e 4f a9 4e bc
       0.010066646 0.03568966 0.18469761 -0.0126136085
000130 da e9 6b bd fe d2 ec bd 36 48 76 3d b8 3d f5 3d
       -0.057596065 -0.11563681 0.06012746 0.119746625
000140 87 58 2e bd 84 a6 83 3c 09 07 97 bd c4 81 30 be
       -0.042564895 0.016070612 -0.07374389 -0.17237002
000150 49 c3 52 3d 54 7e a7 bd b5 ea 6b bd ac 71 16 3e
       0.05145577 -0.08178392 -0.05759688 0.146918
000160 a1 6d 0b 3e 39 b9 23 bc 0d d1 79 bd 8d 6f 15 3e
       0.13616039 -0.009992891 -0.060990382 0.14593334
000170 a0 2d 31 3e 8d ab 89 bd db 93 0f 3e 09 9b 9c 3d
       0.17302561 -0.06722174 0.14021246 0.07646758
000180 c6 c1 eb 3b 21 2b e4 3c de 8b 3b 3e 0d e6 86 3d
       0.0071947305 0.027852597 0.18315074 0.065868475
000190 f4 40 0f 3e 3f 5f ea bc 21 9e e2 3c 96 55 d1 bd
       0.13989621 -0.02860987 0.027663292 -0.10221402
0001a0 72 9c cf bd ac 6f f2 3c f8 2b 88 bd 83 e7 cf bd
       -0.101372615 0.029594265 -0.066490114 -0.10151579
0001b0 b0 80 a3 3d 8f 67 93 3d 76 74 05 be ea bd c3 3d
       0.079835296 0.071974866 -0.13032708 0.095577076
0001c0 87 94 4f 3e 5e 8c 0c be 57 65 86 3d 1d 3b 54 3d
       0.20271502 -0.13725421 0.06562298 0.051814187
0001d0 37 a1 56 be 40 fd b3 3d 16 9c 0e bd 67 24 82 3d
       -0.20959936 0.08788538 -0.034816824 0.063545994
0001e0 8d 99 87 3d 03 ab 84 bd 58 f0 e1 3d 7a 3e ab bd
       0.06621084 -0.064779304 0.1103217 -0.08361526
0001f0 25 20 11 be e7 dc d8 3d 15 d3 b9 3b bd 3d 64 3d
       -0.14172418 0.10589009 0.005670915 0.05572294
000200 6d 2e 89 bd fa 49 a3 bd 7d a4 3f 3c 80 d4 cb bd
       -0.06698308 -0.07973094 0.011696932 -0.099526405
000210 df 92 00 be a6 70 9c bd 41 98 f8 ba b9 d3 e7 3d
       -0.12556027 -0.076386735 -0.0018966274 0.1131968
000220 c0 7e 11 3c 24 c9 8f 3d f7 1b a9 3d 43 62 dd bb
       0.008880317 0.070207864 0.08257287 -0.0067560985
000230 b4 f8 4d 3c 9a a9 76 3d 66 1e 0b 3d 01 b9 9a bc
       0.0125715025 0.06022034 0.033964537 -0.018887045
000240 2f 92 89 3b fa 5c 0f 3c 89 5e 36 3d 49 2c b6 3d
       0.0041983346 0.008750195 0.04452375 0.088951655
000250 03 71 75 bd fa 72 1c bd 56 44 19 bd 6c 69 d6 bc
       -0.05992223 -0.038195588 -0.037418686 -0.026173316
000260 fc af 83 3d ca 67 c7 bd e9 dc f2 bc c9 7c a8 3d
       0.06430051 -0.09736593 -0.029646354 0.08226926
000270 cb 90 96 bc 1d 53 64 3d a5 73 91 bd d2 9d 0b 3c
       -0.01837959 0.055743326 -0.071021356 0.008521514
000280 81 3b 65 bb b4 0a 52 3d 8d 65 c6 bd c1 07 b0 bd
       -0.0034978094 0.05127974 -0.09687338 -0.08595229
000290 fb 70 67 bc 2f af f7 bd b7 db ca bc da f5 93 bc
       -0.014126058 -0.120939605 -0.024762971 -0.018061567
0002a0 fc cb 8e 3d 38 40 15 bd 5c 5c d0 bd c4 f3 3c bd
       0.06972501 -0.036438197 -0.10173866 -0.04613091
0002b0 3a 05 fc bd 47 7c ad bd 5d 45 27 3d 0a 81 dc 3d
       -0.123056844 -0.0847097 0.040837634 0.107668
0002c0 37 0d 1c be c5 e3 d1 bd 7a 61 ca bb 72 39 c6 3d
       -0.15239416 -0.10248522 -0.006176171 0.096789256
0002d0 aa 39 2f 3d a7 c7 6e 3c 51 4d 6f 3d 36 52 dc 3d
       0.042779602 0.014573968 0.058423344 0.10757868
0002e0 6d bd 1a 3d 49 f4 82 3a 9d 60 a5 3d 08 61 67 bd
       0.037778307 0.0009991016 0.08075068 -0.05648902
0002f0 79 d6 96 bd 3e 5d b9 bd 81 ca 23 bd 32 dd 04 3d
       -0.07365126 -0.09050988 -0.039988045 0.03243751
000300 4c 06 96 bd bc ac a9 bd 46 41 c4 3d a0 b4 a9 3b
       -0.0732542 -0.082848996 0.095827624 0.005179003
000310 0c 3c 40 bd 00 19 5b ba 8c 7b 01 3d 04 9d f2 bd
       -0.046932265 -0.00083579123 0.031611964 -0.118463546
000320 10 44 ab 3d d6 e4 e1 bd b0 03 d9 bc cc f9 59 bd
       0.08362591 -0.11029975 -0.026491016 -0.05321674
000330 c0 e2 cc 3c f2 0d ef bd e0 f0 97 3d 30 a9 98 bd
       0.025010467 -0.11672582 0.0741899 -0.07454145
000340 58 71 fc 3c c0 4b 5b bb 74 c0 51 bd a8 26 6a 3d
       0.030815765 -0.0033461899 -0.05120893 0.05716577
000350 40 de e6 bd f0 bf 09 3c 90 89 da 3c cc 96 0c bd
       -0.112728596 0.008407578 0.026676923 -0.0343235
000360 f0 37 93 bd b8 b0 a4 bc 50 1a 31 3d c2 d8 cb bd
       -0.071884036 -0.020103797 0.043237984 -0.09953453
000370 5a 67 cd bd a8 e0 3f bd f8 8d fa bc 34 d3 5f bd
       -0.10029478 -0.04684511 -0.030585274 -0.05464478
000380 60 44 63 bc 70 74 e5 3c 1c d7 2f bd 44 e8 0a bd
       -0.013871282 0.028009623 -0.042929754 -0.033912912
000390 3e 21 c6 3d e4 28 b6 bd 24 ea a5 3d 50 5e 7e 3c
       0.09674309 -0.08894518 0.081012994 0.015525416
0003a0 e8 ab bd bc e8 c6 cb bc 2e 07 a9 3d 7a 4d dc bd
       -0.02315326 -0.02487512 0.082533225 -0.10756965
0003b0 2c 0b c6 bd 78 38 b2 3c 94 47 b6 3d 30 c7 88 bd
       -0.096700996 0.021755442 0.08900371 -0.06678617
0003c0 ae a4 90 bd 58 de fc 3c 2a ce 88 bd 56 89 c7 bd
       -0.0706266 0.03086774 -0.06679948 -0.097429916
0003d0 f4 1f 9b 3d c6 a8 d0 3d 8a af f0 3d 6c a1 74 bd
       0.07574454 0.10188441 0.117522314 -0.059724256
0003e0 b0 90 60 bd 88 d5 db bd b4 36 75 bd 98 fe 72 bd
       -0.054825485 -0.10734087 -0.059866622 -0.05932483
0003f0 94 3a 76 3d 44 31 1b 3d e0 37 67 bd 3c f2 09 3d
       0.06011446 0.03788878 -0.05644977 0.03367828

hidden2.bias f4 [64]
000000 42 96 8b 3d 6b c7 d9 bc f7 1f e3 bd 00 64 88 3c
       0.06815769 -0.026584348 -0.11090081 0.016649246
000010 60 51 13 3d fc 57 91 bd de 05 de bd 15 aa 5b 3e
       0.035966277 -0.0709686 -0.10840963 0.214516
000020 fc 8a 52 3d cf 7c b4 bd 4a 98 d3 bc 1a cb e7 bd
       0.051402077 -0.08812868 -0.025829453 -0.113180354
000030 5b e0 fa bb 03 a7 e7 3e 3a 54 8d 3d d7 02 e6 bb
       -0.00765614 0.45244607 0.069008306 -0.0070193815
000040 b1 8a 9a 3e 34 c6 3b 3d 90 ff 9e bd b2 86 1b 3e
       0.30183938 0.045843318 -0.077635884 0.15188101
000050 88 59 02 bd fb fb cc bd 12 53 88 3d df f3 b6 3d
       -0.031823665 -0.10008999 0.066564694 0.089332335
000060 ba 1b 39 3d c3 82 3a 3e 0a 6f 28 be 7e 0b 68 be
       0.045192458 0.18213944 -0.16448608 -0.22660634
000070 1b 11 1a 3e 2d 6b 3b 3e c4 1c 01 3e 96 a3 68 be
       0.15045588 0.18302603 0.1260863 -0.22718653
000080 9f 77 c9 3d 7e 71 eb be cb 88 37 3e 59 8d 3a 3d
       0.09837269 -0.45985025 0.17923276 0.045544956
000090 fe 80 e7 bd 15 ab 37 bd 2e 54 81 3e a0 a8 dc bd
       -0.113039 -0.04484089 0.25259537 -0.1077435
0000a0 00 9b d4 3c 03 29 98 bd 0c 10 94 bd b5 2c db bd
       0.025952816 -0.07429697 -0.07229623 -0.107018866
0000b0 ee ff 05 3d db 12 06 be b6 e2 60 3d dd b9 9c bd
       0.032714777 -0.1309313 0.05490371 -0.07652638
0000c0 f4 6e 4f 3d e1 38 4a 3e d7 d1 5b 3d 42 07 44 3e
       0.050642923 0.1974826 0.053666916 0.19143394
0000d0 ca b3 8b 3d b7 db a5 bd 2c 5b 6e bd 8a 99 9e 3d
       0.068214014 -0.08098548 -0.058192417 0.07744129
0000e0 fc fc 59 3e 01 7e 04 bb 5d 45 08 be 12 01 5d 3d
       0.21287912 -0.0020216706 -0.1330771 0.0539561
0000f0 8a a2 e7 3c 12 b7 f3 bd 15 67 06 3e c6 0c cc 3d
       0.028275747 -0.11900152 0.1312526 0.09963374

output.weight f4 [1, 64]
000000 19 2b fc 3d 8d 3c b3 3e 69 32 70 bd 7a c8 9c 3d
       0.12312908 0.35007134 -0.058641825 0.07655425
000010 e8 3e 17 be 69 3f 00 3a 30 4a fe be 42 1c 07 3f
       -0.1477009 0.00048922613 -0.49665976 0.52777493
000020 3c 2f 16 3f 73 f1 dc 3d ed 00 d2 3e dd e4 84 3d
       0.58665824 0.1078824 0.4101633 0.06488965
000030 62 2d 65 be c6 8b a8 bf cc 4f 42 be 97 00 80 3e
       -0.22380593 -1.3167655 -0.18975753 0.2500045
000040 cb a1 9d 3f 0b 83 20 3d 2a 3e bd 3e bc 4b 0d be
       1.2315 0.039187472 0.3696149 -0.13798422
000050 a4 41 6a be 84 39 60 be a8 86 8b 3d 01 37 11 bd
       -0.22876602 -0.2189694 0.06812793 -0.035452846
000060 78 8a f0 bd 4a 51 61 3e 7d c3 be be 6a e0 ec be
       -0.11745161 0.22003666 -0.3725852 -0.46264964
000070 ba a5 8b be 51 d4 a2 3e c0 1b ce 3e b3 28 06 bf
       -0.27274877 0.3180261 0.40255547 -0.5240585
000080 77 5a fc 3d f8 bb 6e 3f 2a ad 0a bf dd 61 9f be
       0.12321942 0.9325557 -0.5417048 -0.3112935
000090 9b 47 7b be 95 f5 2f be 19 2e 62 3f d0 a2 e4 ba
       -0.24539034 -0.17183526 0.8835159 -0.0017443541
0000a0 24 de 6f 3d 61 f8 8e 3e 1e 09 d2 3d 95 79 70 3e
       0.05856146 0.27923873 0.10255645 0.2348388
0000b0 8d 47 5b 3e de f3 d6 3e ca 52 4f be da ec 4b 3e
       0.21414013 0.4198293 -0.20246425 0.1991457
0000c0 af 3a b4 3c 2e 0f c6 be 4c 4f bc bd 53 7a a2 be
       0.022000639 -0.38683456 -0.09194812 -0.3173395
0000d0 7a 3b 91 3e b3 32 2f be 95 46 3e be 6e 24 11 3d
       0.2836569 -0.17109184 -0.18581612 0.035435133
0000e0 c7 3c be 3e b1 52 58 be ea 5e 46 be 32 0f 53 3e
       0.37155744 -0.21125294 -0.19372144 0.20611265
0000f0 ce a1 92 be 82 9a 30 3e 02 c5 0f be 09 61 81 3e
       -0.28639072 0.1724644 -0.14039996 0.25269344
